…
 'show_individual_scores': False,
 'split_sizes': [0.9, 0.1, 0.0],
 'split_type': 'random',
 'test': False,
 'test_fold_index': None,
 'undirected': False,
 'use_compound_names': False,
 'use_input_features': None,
 'val_fold_index': None,
 'warmup_epochs': 2.0,
 'write_true_val': False}
Loading data
Number of tasks = 1
Splitting data with seed 0
Total size = 3,863 | train size = 3,476 | val size = 387 | test size = 0
Fitting scaler
Building model 0
MoleculeModel(
  (encoder): MPN(
    (encoder): MPNEncoder(
      (dropout_layer): Dropout(p=0.0, inplace=False)
      (act_func): ReLU()
      (W_i): Linear(in_features=145, out_features=300, bias=False)
      (W_h): Linear(in_features=300, out_features=300, bias=False)
      (W_o): Linear(in_features=428, out_features=300, bias=True)
    )
  )
  (ffn_d2): Sequential(
    (0): Dropout(p=0.0, inplace=False)
    (1): Linear(in_features=300, out_features=300, bias=True)
    (2): ReLU()
    (3): Dropout(p=0.0, inplace=False)
    (4): Linear(in_features=300, out_features=1, bias=True)
  )
  (ffn_d3): Sequential(
    (0): Dropout(p=0.0, inplace=False)
    (1): Linear(in_features=300, out_features=300, bias=True)
    (2): ReLU()
    (3): Dropout(p=0.0, inplace=False)
    (4): Linear(in_features=300, out_features=1, bias=True)
  )
  (ffn_atomic): Sequential(
    (0): TimeDistributed_wrapper(
      (module): Dropout(p=0.0, inplace=False)
    )
    (1): TimeDistributed_wrapper(
      (module): Linear(in_features=300, out_features=300, bias=True)
    )
    (2): TimeDistributed_wrapper(
      (module): ReLU()
    )
    (3): TimeDistributed_wrapper(
      (module): Dropout(p=0.0, inplace=False)
    )
    (4): TimeDistributed_wrapper(
      (module): Linear(in_features=300, out_features=1, bias=True)
    )
    (5): LambdaLayer()
  )
)
Number of parameters = 534,003
Epoch 0
Fold 0
{'AM_dim0': False,
 'AM_dim1': False,
 'activation': 'ReLU',
 'atom_messages': False,
 'batch_size': 50,
 'bias': False,
 'checkpoint_dir': None,
 'checkpoint_path': None,
 'checkpoint_paths': None,
 'config_path': None,
 'crossval_index_dir': None,
 'crossval_index_file': None,
…
 'show_individual_scores': False,
 'split_sizes': [0.9, 0.1, 0.0],
 'split_type': 'random',
 'test': False,
 'test_fold_index': None,
 'undirected': False,
 'use_compound_names': False,
 'use_input_features': None,
 'val_fold_index': None,
 'warmup_epochs': 2.0,
 'write_true_val': False}
Loading data
Number of tasks = 1
Splitting data with seed 0
Total size = 3,863 | train size = 3,476 | val size = 387 | test size = 0
Fitting scaler
Building model 0
MoleculeModel(
  (encoder_d2): MPN(
    (encoder): MPNEncoder(
      (dropout_layer): Dropout(p=0.0, inplace=False)
      (act_func): ReLU()
      (W_i): Linear(in_features=145, out_features=300, bias=False)
      (W_h): Linear(in_features=300, out_features=300, bias=False)
      (W_o): Linear(in_features=428, out_features=300, bias=True)
    )
  )
  (encoder_d3): MPN(
    (encoder): MPNEncoder(
      (dropout_layer): Dropout(p=0.0, inplace=False)
      (act_func): ReLU()
      (W_i): Linear(in_features=145, out_features=300, bias=False)
      (W_h): Linear(in_features=300, out_features=300, bias=False)
      (W_o): Linear(in_features=428, out_features=300, bias=True)
    )
  )
  (encoder_atomic): MPN(
    (encoder): MPNEncoder(
      (dropout_layer): Dropout(p=0.0, inplace=False)
      (act_func): ReLU()
      (W_i): Linear(in_features=145, out_features=300, bias=False)
      (W_h): Linear(in_features=300, out_features=300, bias=False)
      (W_o): Linear(in_features=428, out_features=300, bias=True)
    )
  )
  (ffn_d2): Sequential(
    (0): Dropout(p=0.0, inplace=False)
    (1): Linear(in_features=300, out_features=300, bias=True)
    (2): ReLU()
    (3): Dropout(p=0.0, inplace=False)
    (4): Linear(in_features=300, out_features=1, bias=True)
  )
  (ffn_d3): Sequential(
    (0): Dropout(p=0.0, inplace=False)
    (1): Linear(in_features=300, out_features=300, bias=True)
    (2): ReLU()
    (3): Dropout(p=0.0, inplace=False)
    (4): Linear(in_features=300, out_features=1, bias=True)
  )
  (ffn_atomic): Sequential(
    (0): TimeDistributed_wrapper(
      (module): Dropout(p=0.0, inplace=False)
    )
    (1): TimeDistributed_wrapper(
      (module): Linear(in_features=300, out_features=300, bias=True)
    )
    (2): TimeDistributed_wrapper(
      (module): ReLU()
    )
    (3): TimeDistributed_wrapper(
      (module): Dropout(p=0.0, inplace=False)
    )
    (4): TimeDistributed_wrapper(
      (module): Linear(in_features=300, out_features=1, bias=True)
    )
    (5): LambdaLayer()
  )
)
Number of parameters = 1,058,403
Epoch 0
Fold 0
{'AM_dim0': False,
 'AM_dim1': False,
 'activation': 'ReLU',
 'atom_messages': False,
 'batch_size': 1,
 'bias': False,
 'checkpoint_dir': None,
 'checkpoint_path': None,
 'checkpoint_paths': None,
 'config_path': None,
 'crossval_index_dir': None,
 'crossval_index_file': None,
…
