…
 'separate_val_path': None,
 'show_individual_scores': False,
 'split_sizes': [0.5, 0.5, 0.0],
 'split_type': 'random',
 'test': False,
 'test_fold_index': None,
 'undirected': False,
 'use_compound_names': False,
 'use_input_features': None,
 'val_fold_index': None,
 'warmup_epochs': 2.0,
 'write_true_val': False}
Loading data
Number of tasks = 1
Splitting data with seed 0
Total size = 3 | train size = 1 | val size = 2 | test size = 0
Fitting scaler
Building model 0
MoleculeModel(
  (encoder): MPN(
    (encoder): MPNEncoder(
      (dropout_layer): Dropout(p=0.0)
      (act_func): ReLU()
      (W_i): Linear(in_features=145, out_features=300, bias=False)
      (W_h): Linear(in_features=300, out_features=300, bias=False)
      (W_o): Linear(in_features=428, out_features=300, bias=True)
    )
  )
  (ffn_d0): Sequential(
    (0): TimeDistributed_wrapper(
      (module): Dropout(p=0.0)
    )
    (1): TimeDistributed_wrapper(
      (module): Linear(in_features=300, out_features=300, bias=True)
    )
    (2): TimeDistributed_wrapper(
      (module): ReLU()
    )
    (3): TimeDistributed_wrapper(
      (module): Dropout(p=0.0)
    )
    (4): TimeDistributed_wrapper(
      (module): Linear(in_features=300, out_features=1, bias=True)
    )
    (5): LambdaLayer()
  )
  (ffn_d1): Sequential(
    (0): TimeDistributed_wrapper(
      (module): Dropout(p=0.0)
    )
    (1): TimeDistributed_wrapper(
      (module): Linear(in_features=300, out_features=300, bias=True)
    )
    (2): TimeDistributed_wrapper(
      (module): ReLU()
    )
    (3): TimeDistributed_wrapper(
      (module): Dropout(p=0.0)
    )
    (4): TimeDistributed_wrapper(
      (module): Linear(in_features=300, out_features=1, bias=True)
    )
    (5): LambdaLayer()
  )
  (ffn_d2): Sequential(
    (0): TimeDistributed_wrapper(
      (module): Dropout(p=0.0)
    )
    (1): TimeDistributed_wrapper(
      (module): Linear(in_features=300, out_features=300, bias=True)
    )
    (2): TimeDistributed_wrapper(
      (module): ReLU()
    )
    (3): TimeDistributed_wrapper(
      (module): Dropout(p=0.0)
    )
    (4): TimeDistributed_wrapper(
      (module): Linear(in_features=300, out_features=1, bias=True)
    )
    (5): LambdaLayer()
  )
  (ffn_final): Sequential(
    (0): TimeDistributed_wrapper(
      (module): Dropout(p=0.0)
    )
    (1): TimeDistributed_wrapper(
      (module): Linear(in_features=300, out_features=300, bias=True)
    )
    (2): TimeDistributed_wrapper(
      (module): ReLU()
    )
    (3): TimeDistributed_wrapper(
      (module): Dropout(p=0.0)
    )
    (4): TimeDistributed_wrapper(
      (module): Linear(in_features=300, out_features=1, bias=True)
    )
    (5): LambdaLayer()
  )
  (ffn_mol): Sequential(
    (0): Dropout(p=0.0)
    (1): Linear(in_features=300, out_features=300, bias=True)
    (2): ReLU()
    (3): Dropout(p=0.0)
    (4): Linear(in_features=300, out_features=1, bias=True)
  )
)
Number of parameters = 715,205
Epoch 0
Validation rmse = 20.057468
Model 0 best validation rmse = 20.057468 on epoch 0
Loading pretrained parameter "encoder.encoder.cached_zero_vector".
Loading pretrained parameter "encoder.encoder.W_i.weight".
Loading pretrained parameter "encoder.encoder.W_h.weight".
Loading pretrained parameter "encoder.encoder.W_o.weight".
…
